…
(3, 3), padding='same', input_shape = (28, 28, 3), activation = 'relu'))\nclassifier.add(layers.Conv2D(32, (3, 3), activation='relu'))\n...\n#adding dense-dropout-dense layers\nclassifier.add(layers.Dense(units = 512, activation = 'relu')) \n```", "```py\n#Printing the model summary\nprint(\"Model Summary\",classifier.summary()) \n```", "```py\nModel: \"sequential\"\n_________________________________________________________________\nLayer (type)                 Output Shape              Param #   \n=================================================================\nconv2d (Conv2D)              (None, 28, 28, 32)        896       \n_________________________________________________________________\nconv2d_1 (Conv2D)            (None, 26, 26, 32)        9248      \n_________________________________________________________________\nmax_pooling2d (MaxPooling2D) (None, 13, 13, 32)        0         \n_________________________________________________________________\ndropout (Dropout)            (None, 13, 13, 32)        0         \n_________________________________________________________________\nconv2d_2 (Conv2D)            (None, 13, 13, 64)        18496     \n_________________________________________________________________\nconv2d_3 (Conv2D)            (None, 11, 11, 64)        36928     \n_________________________________________________________________\nmax_pooling2d_1 (MaxPooling2 (None, 5, 5, 64)          0         \n_________________________________________________________________\ndropout_1 (Dropout)          (None, 5, 5, 64)          0         \n_________________________________________________________________\nconv2d_4 (Conv2D)            (None, 5, 5, 64)          36928     \n_________________________________________________________________\nconv2d_5 (Conv2D)            (None, 3, 3, 64)          36928     \n_________________________________________________________________\nmax_pooling2d_2 (MaxPooling2 (None, 1, 1, 64)          0         \n_________________________________________________________________\ndropout_2 (Dropout)          (None, 1, 1, 64)          0         \n_________________________________________________________________\nflatten (Flatten)            (None, 64)                0         \n_________________________________________________________________\ndense (Dense)                (None, 512)               33280     \n_________________________________________________________________\ndropout_3 (Dropout)          (None, 512)               0         \n_________________________________________________________________\ndense_1 (Dense)              (None, 3)                 1539      \n=============================================================== \n```", "```py\n# Compiling the convolutional neural network (CNN)\nclassifier.compile(optimizer = 'rmsprop',\n    loss = 'categorical_crossentropy',metrics = ['accuracy']) \n```", "```py\ntrain_datagen = ImageDataGenerator(rescale = 1./255)\ntest_datagen = ImageDataGenerator(rescale = 1./255)\ntraining_set = train_datagen.flo
…
