…
as.models.load_model(directory+\"model/model3.h5\")\nprint(loaded_model.summary()) \n```", "```py\n# __________________compile loaded model\nloaded_model.compile(loss='binary_crossentropy', optimizer='rmsprop', metrics=['accuracy']) \n```", "```py\nprint(\"GLOBAL MODEL STRUCTURE\")\nprint(loaded_model.summary()) \n```", "```py\nMODEL STRUCTURE\nModel: \"sequential\"\n_________________________________________________________________\nLayer (type)                 Output Shape              Param #   \n=================================================================\nconv2d (Conv2D)              (None, 62, 62, 32)        896       \n_________________________________________________________________\nmax_pooling2d (MaxPooling2D) (None, 31, 31, 32)        0         \n_________________________________________________________________\nconv2d_1 (Conv2D)            (None, 29, 29, 32)        9248      \n_________________________________________________________________\nmax_pooling2d_1 (MaxPooling2 (None, 14, 14, 32)        0         \n_________________________________________________________________\nflatten (Flatten)            (None, 6272)              0         \n_________________________________________________________________\ndense (Dense)                (None, 128)               802944    \n_________________________________________________________________\ndense_1 (Dense)              (None, 1)                 129       \n=================================================================\nTotal params: 813,217\nTrainable params: 813,217\nNon-trainable params: 0 \n```", "```py\nDETAILED MODEL STRUCTURE\n{'name': 'conv2d', 'trainable': True, 'batch_input_shape': (None, 64, 64, 3), 'dtype': 'float32', 'filters': 32, 'kernel_size': (3, 3), 'strides': (1, 1), 'padding': 'valid', 'data_format': 'channels_last', '
…
