…
zation()(l3)\nl5 = Dropout(0.2)(l4)\noutput = Dense(1, activation='sigmoid')(l5)\n\nrnn = Model(inpt_vec, output)\n\nrnn.compile(loss='binary_crossentropy', optimizer='adam', \n            metrics=['accuracy'])\nrnn.summary()\n```", "```py\nModel: \"functional\"\n_________________________________________________________________\nLayer (type)                 Output Shape     Param # \n=================================================================\ninput_1 (InputLayer)         [(None, 128)]    0 \n_________________________________________________________________\nembedding (Embedding)        (None, 128, 64)  640000 \n_________________________________________________________________\ndropout_1 (Dropout)          (None, 128, 64)  0 \n_________________________________________________________________\nsimple_rnn (SimpleRNN)       (None, 32)       3104 \n_________________________________________________________________\nbatch_normalization (BatchNo (None, 32)       128 \n_________________________________________________________________\ndropout_2 (Dropout)          (None, 32)       0 \n_________________________________________________________________\ndense (Dense)                (None, 1)        33 \n=================================================================\nTotal params: 643,265\nTrainable params: 643,201\nNon-trainable params: 64\n```", "```py\nfrom tensorflow.keras.callbacks import ReduceLROnPlateau, EarlyStopping\nimport matplotlib.pyplot as plt\n\n#callbacks\nreduce_lr = ReduceLROnPlateau(monitor='val_loss', factor=0.5, patience=3, \n                              min_delta=1e-4
…
2)\nl4 = BatchNormalization()(l3)\nl5 = Dropout(0.2)(l4)\noutput = Dense(1, activation='sigmoid')(l5)\n\nlstm = Model(inpt_vec, output)\n\nlstm.compile(loss='binary_crossentropy', optimizer='adam', \n             metrics=['accuracy'])\nlstm.summary()\n```", "```py\nModel: \"functional\"\n_________________________________________________________________\nLayer (type) Output Shape Param # \n=================================================================\ninput (InputLayer)          [(None, 128)] 0 \n_________________________________________________________________\nembedding (Embedding)       (None, 128, 64) 640000 \n_________________________________________________________________\ndropout_1 (Dropout)         (None, 128, 64) 0 \n_________________________________________________________________\nlstm (LSTM)                 (None, 32) 12416 \n_________________________________________________________________\nbatch_normalization (Batch  (None, 32) 128 \n_________________________________________________________________\ndropout_2 (Dropout)         (None, 32) 0 \n_________________________________________________________________\ndense (Dense)               (None, 1) 33 \n=================================================================\nTotal params: 652,577\nTrainable params: 652,513\nNon-trainable params: 64\n```", "```py\nfrom tensorflow.keras.callbacks import ReduceLROnPlateau, EarlyStopping\nimport matplotlib.pyplot as plt\n\n#callbacks\nreduce_lr = ReduceLROnPlateau(monitor='val_loss', factor=0.5, patience=3, \n                              min_delta=1e-4
…
