…
c.: %.2f%%] [G loss: %f]\" % \n           (epoch, d_loss[0], 100*d_loss[1], g_loss))\n\n    noise = np.random.uniform(0, 1, (2, ltnt_dim))\n    gen_imgs = generator.predict(noise)\n    samp_imgs[epoch] = gen_imgs    \n```", "```py\nModel: \"Generator\"\n_________________________________________________________________\nLayer (type)                   Output Shape       Param # \n=================================================================\ninput_1 (InputLayer)           [(None, 100)]      0 \n_________________________________________________________________\ndense_1 (Dense)                (None, 12544)      1266944 \n_________________________________________________________________\nbatch_normalization_1 (Batch   (None, 12544)      50176 \n_________________________________________________________________\nreshape (Reshape)              (None, 7, 7, 256)  0 \n_________________________________________________________________\nconv2d_transpose_1 (Conv2DTran (None, 7, 7, 128)  819328 \n_________________________________________________________________\nbatch_normalization_2 (Batch   (None, 7, 7, 128)  512 \n_________________________________________________________________\nconv2d_transpose_2 (Conv2DTr   (None, 14, 14, 64) 204864 \n_________________________________________________________________\nbatch_normalization_3 (Batch   (None, 14, 14, 64) 256 \n_________________________________________________________________\nconv2d_transpose_3 (Conv2DTr   (None, 28, 28, 1)  1601 \n=================================================================\nTotal params: 2,343,681\nTrainable params: 2,318,209\nNon-trainable params: 25,472\n```", "```py\n_________________________________________________________________\nModel: \"Critic\"\n_________________________________________________________________\nLayer (type)         Output Shape         Param # \n=================================================================\ninput_2 (InputLayer) [(None, 28, 28, 1)]  0 \n_________________________________________________________________\nconv2d_1 (Conv2D)    (None, 14, 14, 64)   1664 \n_________________________________________________________________\ndropout_1 (Dropout)  (None, 14, 14, 64)   0 \n_________________________________________________________________\nconv2d_2 (Conv2D)    (None, 7, 7, 128)    204928 \n_________________________________________________________________\ndropout_2 (Dropout)  (None, 7, 7, 128)    0 \n_________________________________________________________________\nflatten (Flatten)    (None, 6272)         0 \n_________________________________________________________________\ndense_2 (Dense)      (None, 1)             6273 \n=================================================================\nTotal params: 212,865\nTrainable params: 212,865\nNon-trainable params: 0\n```", "```py\n0 [C loss: 0.719159, acc.: 22.66%] [G loss: 0.680779]\n400 [C loss: 0.000324, acc.: 100.00%] [G loss: 0.000151]\n800 [C loss: 0.731860, acc.: 59.38%] [G loss: 0.572153]\n.\n.\n.\n11200 [C loss: 0.613043, acc.: 66.41%] [G loss: 0.946724]\n116
…
