…
fication_pipeline = pipeline(\n         task=\"image-classification\",\n         model=\"google/vit-base-patch16-224\")\n    ```", "```py\n    img_classification_pipeline(\"https://upload.wikimedia.org/wikipedia/commons/thumb/4/41/Left_side_of_Flying_Pigeon.jpg/640px-Left_side_of_Flying_Pigeon.jpg\")\n    ```", "```py\n    [{'score': 0.4616938531398773, 'label': 'tricycle,\n         trike, velocipede'}]\n    ```", "```py\n    ViTForImageClassification(\n      (vit): ViTModel(\n         (embeddings): ViTEmbeddings(\n            (patch_embeddings): ViTPatchEmbeddings(\n               (projection): Conv2d(3, 768,\n                            kernel_size=(16, 16),\n                            stride=(16, 16))\n            )\n            (dropout): Dropout(p=0.0)\n         )\n         (encoder): ViTEncoder(\n            (layer): ModuleList(\n               (0-11): 12 x ViTLayer(\n                  (attention): ViTAttention(\n                     (attention): ViTSelfAttention(\n                        (query): Linear(in_f=768,\n                                  out_f=768)\n                        (key): Linear(in_f=768, out_f=768)\n                        (value): Linear(in_f=768,\n                                  out_f=768)\n                        (dropout): Dropout(p=0.0)\n                     )\n                     (output): ViTSelfOutput(\n                        (dense): Linear(in_f=768,\n                                  out_f=768)\n                        (dropout): Dropout(p=0.0)\n                     )\n                  )\n                  (intermediate): ViTIntermediate(\n                    (dense): Linear(in_f=768, out_f=3072)\n                    (intermediate_act_fn):GELUActivation()\n                  )\n                  (output): ViTOutput(\n                    (dense): Linear(in_f=3072, out_f=768)\n                    (dropout): Dropout(p=0.0)\n                  )\n                  (layernorm_before): LayerNorm((768,))\n                  (layernorm_after): LayerNorm((768,))\n               )\n            )\n         )\n         (layernorm): LayerNorm((768,))\n      )\n      (classifier): Linear(in_f=768, out_f=1000)\n    )\n    ```", "```py\nfrom transformers import pipeline\nobj_detection_pipeline = pipeline(\n     task=\"object-detection\",\n     model=\"facebook/detr-resnet-50\")\nobj_detection_pipeline(\"https://upload.wikimedia.org/wikipedia/commons/thumb/4/41/Left_side_of_Flying_Pigeon.jpg/640px-Left_side_of_Flying_Pigeon.jpg\")\n```", "```py\n{'score': 0.997983455657959,\n  'label': 'bicycle',\n  'box': {'xmin': 16, 'ymin': 14, 'xmax': 623, 'ymax': 406}}\n```", "```py\n(input_projection): Conv2d(2048, 256,\n                   kernel_size=(1, 1),\n                   stride=(1, 1))\n```", "```py\n(query_position_embeddings): Embedding(100, 256)\n```", "```py\n(encoder): DetrEncoder(\n  (layers): ModuleList(\n     (0-5): 6 x DetrEncoderLayer(\n        (self_attn): DetrAttention(\n           (k_proj): Linear(in_f=256, out_f=256)\n           (v_proj): Linear(in_f=256, out_f=256)\n           (q_proj): Linear(in_f=256, out_f=256)\n           (out_proj): Linear(in_f=256, out_f=256)\n        )\n        (self_attn_layer_norm): LayerNorm((256,))\n        (activation_fn): ReLU()\n        (fc1): Linear(in_f=256, out_f=2048)\n        (fc2): Linear(in_f=2048, out_f=256)\n        (final_layer_norm): LayerNorm((256,))\n     )\n  )\n)\n```", "```py\n(decoder): DetrDecoder(\n  (layers): ModuleList(\n     (0-5): 6 x DetrDecoderLayer(\n        (self_attn): DetrAttention(\n           (k_proj): Linear(in_f=256, out_f=256)\n           (v_proj): Linear(in_f=256, out_f=256)\n           (q_proj): Linear(in_f=256, out_f=256)\n           (out_proj): Linear(in_f=256, out_f=256)\n        )\n        (activation_fn): ReLU()\n        (self_attn_layer_norm): LayerNorm((256,))\n        (encoder_attn): DetrAttention(\n           (k_proj): Linear(in_f=256, out_f=256)\n           (v_proj): Linear(in_f=256, out_f=256)\n           (q_proj): Linear(in_f=256, out_f=256)\n           (out_proj): Linear(in_f=256, out_f=256)\n        )\n        (encoder_attn_layer_norm): LayerNorm((256,))\n        (fc1): Linear(in_f=256, out_f=2048)\n        (fc2): Linear(in_f=2048, out_f=256)\n        (final_layer_norm): LayerNorm((256,))\n     )\n  )\n  (layernorm): LayerNorm((256,))\n)\n```", "```py\n(class_labels_classifier): Linear(in_f=256, out_f=92)\n(bbox_predictor): DetrMLPPredictionHead(\n  (layers): ModuleList(\n     (0-1): 2 x Linear(in_f=256, out_f=256)\n     (2): Linear(in_f=256, out_f=4)\n  )\n)\n```", "```py\n    import torch\n    from diffusers import StableDiffusionPipeline\n    ```", "```py\n    sd_pipe = StableDiffusionPipeline.from_pretrained(\n         \"stabilityai/stable-diffusion-2-1\",\n         torch_dtype=torch.float16)\n    sd_pipe.to('cuda')\n    ```", "```py\n    prompt = \\\n      \"High quality photo of a racing car on a track\"\n    image = sd
…
